…
        "combined_records": 493,
        "data_quality": "good"
      },
      "AMZN": {
        "minio_records": 242,
        "alpaca_records": 250,
        "combined_records": 492,
        "data_quality": "good"
      },
      "TSLA": {
        "minio_records": 242,
        "alpaca_records": 250,
        "combined_records": 492,
        "data_quality": "good"
      }
    }
  },
  "model_training": {
    "neural_network": {
      "model_type": "neural_network",
      "avg_r2": -9.733290935619731,
      "best_r2": -0.0294538652851013,
      "best_model": "ProductionTradingModel(\n  (feature_layers): Sequential(\n    (0): Linear(in_features=17, out_features=512, bias=True)\n    (1): BatchNorm1d(512, eps=1e-05, momentum=0.1, affine=True, track_running_stats=True)\n    (2): LeakyReLU(negative_slope=0.1)\n    (3): Dropout(p=0.2, inplace=False)\n    (4): Linear(in_features=512, out_features=256, bias=True)\n    (5): BatchNorm1d(256, eps=1e-05, momentum=0.1, affine=True, track_running_stats=True)\n    (6): LeakyReLU(negative_slope=0.1)\n    (7): Dropout(p=0.15, inplace=False)\n    (8): Linear(in_features=256, out_features=128, bias=True)\n    (9): BatchNorm1d(128, eps=1e-05, momentum=0.1, affine=True, track_running_stats=True)\n    (10): LeakyReLU(negative_slope=0.1)\n    (11): Dropout(p=0.1, inplace=False)\n  )\n  (price_head): Sequential(\n    (0): Linear(in_features=128, out_features=64, bias=True)\n    (1): LeakyReLU(negative_slope=0.1)\n    (2): Linear(in_features=64, out_features=1, bias=True)\n  )\n  (return_head): Sequential(\n    (0): Linear(in_features=128, out_features=64, bias=True)\n    (1): LeakyReLU(negative_slope=0.1)\n    (2): Linear(in_features=64, out_features=1, bias=True)\n  )\n  (volatility_head): Sequential(\n    (0): Linear(in_features=128, out_features=64, bias=True)\n    (1): LeakyReLU(negative_slope=0.1)\n    (2): Linear(in_features=64, out_features=1, bias=True)\n  )\n  (confidence_head): Sequential(\n    (0): Linear(in_features=128, out_features=32, bias=True)\n    (1): LeakyReLU(negative_slope=0.1)\n    (2): Linear(in_features=32, out_features=1, bias=True)\n    (3): Sigmoid()\n  )\n)",
      "best_scaler": "RobustScaler()",
      "fold_results": [
        {
          "fold": 0,
          "r2": -47.976737439649725,
          "mse": 0.018996331576919708,
          "model": "ProductionTradingModel(\n  (feature_layers): Sequential(\n    (0): Linear(in_features=17, out_features=512, bias=True)\n    (1): BatchNorm1d(512, eps=1e-05, momentum=0.1, affine=True, track_running_stats=True)\n    (2): LeakyReLU(negative_slope=0.1)\n    (3): Dropout(p=0.2, inplace=False)\n    (4): Linear(in_features=512, out_features=256, bias=True)\n    (5): BatchNorm1d(256, eps=1e-05, momentum=0.1, affine=True, track_running_stats=True)\n    (6): LeakyReLU(negative_slope=0.1)\n    (7): Dropout(p=0.15, inplace=False)\n    (8): Linear(in_features=256, out_features=128, bias=True)\n    (9): BatchNorm1d(128, eps=1e-05, momentum=0.1, affine=True, track_running_stats=True)\n    (10): LeakyReLU(negative_slope=0.1)\n    (11): Dropout(p=0.1, inplace=False)\n  )\n  (price_head): Sequential(\n    (0): Linear(in_features=128, out_features=64, bias=True)\n    (1): LeakyReLU(negative_slope=0.1)\n    (2): Linear(in_features=64, out_features=1, bias=True)\n  )\n  (return_head): Sequential(\n    (0): Linear(in_features=128, out_features=64, bias=True)\n    (1): LeakyReLU(negative_slope=0.1)\n    (2): Linear(in_features=64, out_features=1, bias=True)\n  )\n  (volatility_head): Sequential(\n    (0): Linear(in_features=128, out_features=64, bias=True)\n    (1): LeakyReLU(negative_slope=0.1)\n    (2): Linear(in_features=64, out_features=1, bias=True)\n  )\n  (confidence_head): Sequential(\n    (0): Linear(in_features=128, out_features=32, bias=True)\n    (1): LeakyReLU(negative_slope=0.1)\n    (2): Linear(in_features=32, out_features=1, bias=True)\n    (3): Sigmoid()\n  )\n)",
          "scaler": "RobustScaler()"
        },
        {
          "fold": 1,
          "r2": -0.05718186879424869,
          "mse": 0.0004785314249523648,
          "model": "ProductionTradingModel(\n  (feature_layers): Sequential(\n    (0): Linear(in_features=17, out_features=512, bias=True)\n    (1): BatchNorm1d(512, eps=1e-05, momentum=0.1, affine=True, track_running_stats=True)\n    (2): LeakyReLU(negative_slope=0.1)\n    (3): Dropout(p=0.2, inplace=False)\n    (4): Linear(in_features=512, out_features=256, bias=True)\n    (5): BatchNorm1d(256, eps=1e-05, momentum=0.1, affine=True, track_running_stats=True)\n    (6): LeakyReLU(negative_slope=0.1)\n    (7): Dropout(p=0.15, inplace=False)\n    (8): Linear(in_features=256, out_features=128, bias=True)\n    (9): BatchNorm1d(128, eps=1e-05, momentum=0.1, affine=True, track_running_stats=True)\n    (10): LeakyReLU(negative_slope=0.1)\n    (11): Dropout(p=0.1, inplace=False)\n  )\n  (price_head): Sequential(\n    (0): Linear(in_features=128, out_features=64, bias=True)\n    (1): LeakyReLU(negative_slope=0.1)\n    (2): Linear(in_features=64, out_features=1, bias=True)\n  )\n  (return_head): Sequential(\n    (0): Linear(in_features=128, out_features=64, bias=True)\n    (1): LeakyReLU(negative_slope=0.1)\n    (2): Linear(in_features=64, out_features=1, bias=True)\n  )\n  (volatility_head): Sequential(\n    (0): Linear(in_features=128, out_features=64, bias=True)\n    (1): LeakyReLU(negative_slope=0.1)\n    (2): Linear(in_features=64, out_features=1, bias=True)\n  )\n  (confidence_head): Sequential(\n    (0): Linear(in_features=128, out_features=32, bias=True)\n    (1): LeakyReLU(negative_slope=0.1)\n    (2): Linear(in_features=32, out_features=1, bias=True)\n    (3): Sigmoid()\n  )\n)",
          "scaler": "RobustScaler()"
        },
        {
          "fold": 2,
          "r2": -0.0294538652851013,
          "mse": 0.0004132131513642938,
          "model": "ProductionTradingModel(\n  (feature_layers): Sequential(\n    (0): Linear(in_features=17, out_features=512, bias=True)\n    (1): BatchNorm1d(512, eps=1e-05, momentum=0.1, affine=True, track_running_stats=True)\n    (2): LeakyReLU(negative_slope=0.1)\n    (3): Dropout(p=0.2, inplace=False)\n    (4): Linear(in_features=512, out_features=256, bias=True)\n    (5): BatchNorm1d(256, eps=1e-05, momentum=0.1, affine=True, track_running_stats=True)\n    (6): LeakyReLU(negative_slope=0.1)\n    (7): Dropout(p=0.15, inplace=False)\n    (8): Linear(in_features=256, out_features=128, bias=True)\n    (9): BatchNorm1d(128, eps=1e-05, momentum=0.1, affine=True, track_running_stats=True)\n    (10): LeakyReLU(negative_slope=0.1)\n    (11): Dropout(p=0.1, inplace=False)\n  )\n  (price_head): Sequential(\n    (0): Linear(in_features=128, out_features=64, bias=True)\n    (1): LeakyReLU(negative_slope=0.1)\n    (2): Linear(in_features=64, out_features=1, bias=True)\n  )\n  (return_head): Sequential(\n    (0): Linear(in_features=128, out_features=64, bias=True)\n    (1): LeakyReLU(negative_slope=0.1)\n    (2): Linear(in_features=64, out_features=1, bias=True)\n  )\n  (volatility_head): Sequential(\n    (0): Linear(in_features=128, out_features=64, bias=True)\n    (1): LeakyReLU(negative_slope=0.1)\n    (2): Linear(in_features=64, out_features=1, bias=True)\n  )\n  (confidence_head): Sequential(\n    (0): Linear(in_features=128, out_features=32, bias=True)\n    (1): LeakyReLU(negative_slope=0.1)\n    (2): Linear(in_features=32, out_features=1, bias=True)\n    (3): Sigmoid()\n  )\n)",
          "scaler": "RobustScaler()"
        },
        {
          "fold": 3,
          "r2": -0.49963208940684756,
          "mse": 0.0006250031678068475,
          "model": "ProductionTradingModel(\n  (feature_layers): Sequential(\n    (0): Linear(in_features=17, out_features=512, bias=True)\n    (1): BatchNorm1d(512, eps=1e-05, momentum=0.1, affine=True, track_running_stats=True)\n    (2): LeakyReLU(negative_slope=0.1)\n    (3): Dropout(p=0.2, inplace=False)\n    (4): Linear(in_features=512, out_features=256, bias=True)\n    (5): BatchNorm1d(256, eps=1e-05, momentum=0.1, affine=True, track_running_stats=True)\n    (6): LeakyReLU(negative_slope=0.1)\n    (7): Dropout(p=0.15, inplace=False)\n    (8): Linear(in_features=256, out_features=128, bias=True)\n    (9): BatchNorm1d(128, eps=1e-05, momentum=0.1, affine=True, track_running_stats=True)\n    (10): LeakyReLU(negative_slope=0.1)\n    (11): Dropout(p=0.1, inplace=False)\n  )\n  (price_head): Sequential(\n    (0): Linear(in_features=128, out_features=64, bias=True)\n    (1): LeakyReLU(negative_slope=0.1)\n    (2): Linear(in_features=64, out_features=1, bias=True)\n  )\n  (return_head): Sequential(\n    (0): Linear(in_features=128, out_features=64, bias=True)\n    (1): LeakyReLU(negative_slope=0.1)\n    (2): Linear(in_features=64, out_features=1, bias=True)\n  )\n  (volatility_head): Sequential(\n    (0): Linear(in_features=128, out_features=64, bias=True)\n    (1): LeakyReLU(negative_slope=0.1)\n    (2): Linear(in_features=64, out_features=1, bias=True)\n  )\n  (confidence_head): Sequential(\n    (0): Linear(in_features=128, out_features=32, bias=True)\n    (1): LeakyReLU(negative_slope=0.1)\n    (2): Linear(in_features=32, out_features=1, bias=True)\n    (3): Sigmoid()\n  )\n)",
          "scaler": "RobustScaler()"
        },
        {
          "fold": 4,
          "r2": -0.10344941496274807,
          "mse": 0.0004492857308403132,
          "model": "ProductionTradingModel(\n  (feature_layers): Sequential(\n    (0): Linear(in_features=17, out_features=512, bias=True)\n    (1): BatchNorm1d(512, eps=1e-05, momentum=0.1, affine=True, track_running_stats=True)\n    (2): LeakyReLU(negative_slope=0.1)\n    (3): Dropout(p=0.2, inplace=False)\n    (4): Linear(in_features=512, out_features=256, bias=True)\n    (5): BatchNorm1d(256, eps=1e-05, momentum=0.1, affine=True, track_running_stats=True)\n    (6): LeakyReLU(negative_slope=0.1)\n    (7): Dropout(p=0.15, inplace=False)\n    (8): Linear(in_features=256, out_features=128, bias=True)\n    (9): BatchNorm1d(128, eps=1e-05, momentum=0.1, affine=True, track_running_stats=True)\n    (10): LeakyReLU(negative_slope=0.1)\n    (11): Dropout(p=0.1, inplace=False)\n  )\n  (price_head): Sequential(\n    (0): Linear(in_features=128, out_features=64, bias=True)\n    (1): LeakyReLU(negative_slope=0.1)\n    (2): Linear(in_features=64, out_features=1, bias=True)\n  )\n  (return_head): Sequential(\n    (0): Linear(in_features=128, out_features=64, bias=True)\n    (1): LeakyReLU(negative_slope=0.1)\n    (2): Linear(in_features=64, out_features=1, bias=True)\n  )\n  (volatility_head): Sequential(\n    (0): Linear(in_features=128, out_features=64, bias=True)\n    (1): LeakyReLU(negative_slope=0.1)\n    (2): Linear(in_features=64, out_features=1, bias=True)\n  )\n  (confidence_head): Sequential(\n    (0): Linear(in_features=128, out_features=32, bias=True)\n    (1): LeakyReLU(negative_slope=0.1)\n    (2): Linear(in_features=32, out_features=1, bias=True)\n    (3): Sigmoid()\n  )\n)",
          "scaler": "RobustScaler()"
        }
      ]
    },
    "gradient_boosting": {
      "model_type": "gradient_boosting",
      "avg_r2": -0.17128252870354901,
      "best_r2": -0.08012620094336365,
      "best_model": "GradientBoostingRegressor(max_depth=6, random_state=42, subsample=0.8)",
      "fold_results": [
        {
…
